drlagent.pth (torch_old, 6038 bytes, 6 tensors)

fc1.weight f4 [20, 37]
0.6009935 -0.7231348 -0.114136375 -0.492767 -1.3724365 0.13094173 -0.08766015 0.07824364
0.23372729 -0.3401092 0.03608192 0.35712364 -0.015904108 -0.10914759 -0.41518635 0.17209688
0.26546878 0.06910787 0.082845666 0.013230497 0.10597098 -0.1187817 0.017576817 0.114908576
-0.17966932 0.11543331 -0.11867386 0.26971972 0.2709099 0.08759992 0.19570275 0.11847735
-0.009046068 0.13417014 -0.09619846 -0.08209551 0.036260344 0.138369 0.29914522 0.25450888
0.2173214 0.029705333 0.36238408 0.22570267 0.31612873 0.40118074 0.099803664 0.1579454
0.16895136 0.21754067 0.2038781 -0.0060212547 0.27230835 0.18978734 0.22840405 0.30596033
0.17163068 0.18981491 0.22796923 0.17883052 0.20620248 0.10628107 0.16845709 0.26477173
0.06682703 0.05056423 -0.1412565 0.34358457 -1.1746997 -1.3819655 -1.6138632 -4.1282268
-0.05042085 0.0022592973 0.17406721 0.19199069 0.2058936 0.21189457 -0.017546352 0.020809526
0.17818984 0.21666697 0.3841463 0.40190357 0.10084341 0.23373228 0.17217596 0.13245896
-0.007926047 0.12785469 0.17250839 0.20126994 0.25598535 0.079740755 0.18103945 0.16671127
0.18429494 0.19972153 -0.004972752 0.34448212 -1.3329804 -1.436041 -1.667425 -4.3369255
0.12858991 0.15019922 0.13889998 0.25284973 0.11036022 0.013015324 -0.008698825 0.21087712
0.19316514 0.2297806 0.20807289 -0.0247519 0.5304519 -1.5842574 -1.6162617 -1.7425401
-3.6917248 0.174829 0.18886808 0.22246985 0.25385386 0.046178 0.16693306 0.15764812
0.17759852 0.25883597 0.09664942 0.25196114 0.2845985 0.2326978 0.25237685 0.016206875
0.23781313 0.2832299 0.28514242 0.17070076 -0.016478794 0.19275488 0.16397989 0.1949738
0.24878 0.119066775 0.0016909185 0.00040313267 0.20941302 0.089090124 0.21016937 0.29971716
0.11467398 -0.12792245 0.023217997 0.12181736 0.39916787 0.4784009 0.090589866 0.17844959
0.15278219 0.086482316 0.102915525 0.43137658 -1.1273835 -1.6371658 -1.7951145 -4.338854
0.017578317 0.10054794 0.17140834 0.10738087 0.06932962 0.072906986 0.34502208 0.2900466
0.3665812 0.37252346 -0.007902916 0.1948801 0.092844136 0.2561125 0.20686196 0.01176187
-0.011920326 0.08876957 -0.31623763 0.036827836 0.38926083 0.85997844 0.08961565 0.14285767
-0.06563131 -1.028414 -0.63730955 0.049183633 -0.16441432 0.3190837 0.13866241 -1.0175602
0.16528657 -0.7605405 0.05089366 -0.52399856 0.32575563 -0.15666862 0.057694416 0.12097098
-0.14302844 -1.3349154 0.19329546 -0.5850074 -0.39741558 -0.28021201 -0.83259916 -0.4045719
-0.14874889 0.26742262 0.059459798 -0.8795497 -0.048773542 0.016463123 0.102884404 0.045984708
0.12546729 0.036771156 0.0073329355 0.14902152 0.31045258 0.26651114 0.3691855 0.104026526
0.19826497 0.1608703 0.21952343 0.3805778 0.18948506 0.17088598 0.17078295 0.10062464
0.11767057 -0.058837313 0.40904775 -1.0623035 -1.0569824 -1.4752415 -4.4736514 0.10638963
0.06062491 0.11481593 0.13406207 0.17339969 0.0897 0.18856117 0.18451402 0.32510793
00000000: b6da 193f 5d1f 39bf 55c0 e9bd f54b fcbe
00000010: 00ac afbf 9715 063e 2a87 b3bd 343e a03d
00000020: 3556 6f3e cb22 aebe a3ca 133d e9d8 b63e
00000030: 5549 82bc c688 dfbd 4e93 d4be 2a3a 303e
00000040: 86eb 873e 6d88 8d3d fdaa a93d bac4 583c
00000050: 5007 d93d d243 f3bd 42fd 8f3c 3055 eb3d
00000060: 3cfb 37be 4d68 ec3d 480b f3bd b418 8a3e
00000070: b4b4 8a3e 9667 b33d 4d66 483e 41a4 f23d
00000080: f635 14bc e663 093e b303 c5bd b121 a8bd
00000090: ba85 143d 9ab0 0d3e 9029 993e fd4e 823e
000000a0: 8089 5e3e 9958 f33c 688a b93e 9a1e 673e
000000b0: a0db a13e 9067 cd3e dd65 cc3d 70bc 213e
000000c0: 9601 2d3e fbc2 5e3e 6cc5 503e f24d c5bb
000000d0: 006c 8b3e 9d57 423e c0e2 693e d5a6 9c3e
000000e0: f4bf 2f3e d75e 423e c470 693e 591f 373e
000000f0: be26 533e e4a9 d93d 0480 2c3e 2990 873e
00000100: 9cdc 883d 701c 4f3d 8ba5 10be 51ea af3e
00000110: 8f5c 96bf 3fe4 b0bf 1293 cebf 6f1a 84c0
00000120: 1886 4ebd b810 143b ad3e 323e 3599 443e
00000130: c6d5 523e e4fa 583e 5ebd 8fbc bd78 aa3c
00000140: 6677 363e f2dd 5d3e d3ae c43e 4ec6 cd3e
00000150: fd86 ce3d 8457 6f3e e54e 303e 52a3 073e
00000160: 40dc 01bc 57ec 023e 0aa6 303e b519 4e3e
00000170: 8310 833e 1f4f a33d 6862 393e 5cb6 2a3e
00000180: d0b7 3c3e cd83 4c3e 78f2 a2bb f65f b03e
00000190: 1a9f aabf 31d0 b7bf 2f6e d5bf 18c8 8ac0
000001a0: 13ad 033e d3cd 193e cc3b 0e3e 8575 813e
000001b0: 8a04 e23d 3a3e 553c 8485 0ebc 2cf0 573e
000001c0: 15cd 453e 9b4b 6b3e 0f11 553e 7fc4 cabc
000001d0: b2cb 073f f2c8 cabf aae1 cebf 8e0b dfbf
000001e0: 3845 6cc0 6006 333e a266 413e 23cf 633e
000001f0: 22f9 813e 2425 3d3d 80f0 2a3e 826e 213e
00000200: 63dc 353e 2686 843e 22f0 c53d 0d01 813e
00000210: e5b6 913e 5548 6e3e 8a37 813e 48c4 843c
00000220: 4985 733e 8203 913e 30fe 913e 2ecc 2e3e
00000230: 89fe 86bc 8961 453e 58ea 273e 36a7 473e
00000240: 2fc0 7e3e 48d9 f33d cfa1 dd3a 8d5b d339
00000250: 5e70 563e e274 b63d a436 573e 8774 993e
00000260: 31da ea3d 1afe 02be ab33 be3c 617b f93d
00000270: bb5f cc3e f6f0 f43e 2e87 b93d 7dbb 363e
00000280: ef72 1c3e a41d b13d 60c5 d23d 64dd dc3e
00000290: 1a4e 90bf a68e d1bf 50c6 e5bf e4d7 8ac0
000002a0: 6700 903c 14ec cd3d ab85 2f3e 80ea db3d
000002b0: b0fc 8d3d 4250 953d bca6 b03e fd80 943e
000002c0: 88b0 bb3e 65bb be3e 3b7b 01bc a68e 473e
000002d0: 1125 be3d 2d21 833e 9fd3 533e dcb4 403c
000002e0: 794d 43bc d2cc b53d e6e9 a1be c9d8 163d
000002f0: 324d c73e 8c27 5c3f 6988 b73d 4849 123e
00000300: b569 86bd 12a3 83bf b826 23bf c774 493d
00000310: 3a5c 28be f05e a33e 85fd 0d3e 6a3f 82bf
00000320: e240 293e c8b2 42bf df75 503d c524 06bf
00000330: 71c9 a63e bd6d 20be fb50 6c3d a2bf f73d
00000340: 0c76 12be 82de aabf 3fef 453e 0cc3 15bf
00000350: 0e7a cbbe f377 8fbe 3825 55bf 0c24 cfbe
00000360: a151 18be 9eeb 883e 1e8c 733d 2b2a 61bf
00000370: c4c6 47bd acdd 863c 0fb5 d23d 765a 3c3d
00000380: 7f7a 003e 5a9d 163d 1f49 f03b 1999 183e
00000390: a4f3 9e3e 2674 883e e205 bd3e dc0b d53d
000003a0: f905 4b3e 2fbb 243e c0ca 603e 18db c23e
000003b0: 5f08 423e bcfc 2e3e bae1 2e3e 4b14 ce3d
000003c0: 45fd f03d 65ff 70bd b56e d13e 90f9 87bf
000003d0: 334b 87bf b7d4 bcbf 2728 8fc0 cee2 d93d
000003e0: d351 783d 9d24 eb3d 9147 093e b08f 313e
000003f0: a2b4 b73d 2e16 413e 3ef1 3c3e 8c74 a63e

fc1.bias f4 [20]
-0.3368664 -0.277694 -0.05987434 0.09834672 -0.34178194 -0.121766254 -0.2153746 -0.032970376
0.5123889 -0.08167986 -0.2806665 -0.27248642 -0.07677239 -0.4410585 0.56214386 0.24543305
0.5183723 0.83838516 0.03500015 0.18779252
00000000: c179 acbe e82d 8ebe cc3e 75bd 016a c93d
00000010: 0bfe aebe 9660 f9bd 298b 5cbe f20b 07bd
00000020: eb2b 033f c547 a7bd 85b3 8fbe 5783 8bbe
00000030: d83a 9dbd 6bd2 e1be a9e8 0f3f cd52 7b3e
00000040: 0cb4 043f 69a0 563f 515c 0f3d af4c 403e

fc2.weight f4 [20, 20]
-0.04910471 -0.19094087 0.19311188 -0.18522485 -0.14460695 -0.15043703 0.02166866 -0.08627001
-0.18586236 0.24003005 -0.07863741 0.006905866 -0.07391271 0.215415 0.28418824 -0.07981025
-0.007495227 0.2741205 -0.081570834 -0.1989732 -0.2133316 -0.122931935 -0.3210117 0.3705649
-0.42370802 0.24738576 -0.6072915 -0.313539 0.44162792 1.6709235 0.045663558 -0.30723447
0.51566213 0.61966705 -0.23444225 -0.12370281 -0.1392408 0.70131665 0.12416873 -0.07345587
0.30166698 0.39968503 0.36600757 0.51590633 -0.060730074 0.057090417 0.013558765 0.07622099
-0.070768036 0.16904274 -0.06529363 -0.10526035 0.12608439 0.43934876 -0.4868326 -0.6956371
0.3496328 -0.69172984 -0.07456155 0.04141034 0.12454494 0.5529709 -0.581387 -0.13033919
-0.6528973 0.012944418 0.71016645 0.091334045 -0.0010448929 0.20737717 0.17084807 0.9532983
0.22713514 0.669037 -0.06973709 -0.085719466 -0.03328027 -0.13829836 -0.022114808 -0.29773286
0.0967325 -0.11155926 -0.19362274 -0.00240165 0.08638176 -0.18563771 -0.18711494 -0.0028148443
-0.045858994 0.14372131 -0.21666032 -0.03556578 -0.17327935 -0.032568157 -0.11424581 0.070373684
-0.1870594 -0.17590278 -0.1268948 -0.19584313 0.25500894 0.0652473 0.72203666 0.39503476
0.9050298 0.472391 -0.19861162 0.04903854 -0.6321803 0.028204735 -0.3815105 -0.42150083
-0.16402161 0.75401044 -0.20805591 0.45895362 -0.177262 0.6784081 -0.2368697 -0.4794812
-0.21450616 -0.16164526 -0.22466566 -0.59676087 -1.8080844 0.16301985 0.12284018 0.74201494
-1.7240297 -0.2240625 0.5097477 -0.43240544 0.07294769 0.8824209 -2.1629539 -0.22767639
-1.456193 -0.14532448 -1.311009 0.40709406 -0.08419007 0.25425372 0.57630414 -0.93476015
0.4260672 -0.23722613 0.16712797 -0.13128029 0.034699764 0.39736173 0.03733521 -0.0029895622
0.033045754 -0.78748935 0.29229105 0.5594118 -0.052078705 -0.26801497 0.35378823 0.094553545
-0.30099872 0.430149 0.51649284 -0.55351514 0.43818882 -1.3217775 0.61044776 0.3135831
-0.55269927 1.3485111 -0.18225038 0.08281265 -0.13544892 0.819766 -0.76313305 -0.9212981
-0.0032326682 -0.25222346 -0.0044107786 -0.03421556 -0.42240444 -2.5302725 -0.37685058 -1.0510316
-0.34439087 -0.4820721 -1.2839153 -0.14513277 -0.3455775 0.53229445 -0.0812368 -1.2937971
-1.2568595 -1.0390837 0.4561002 -0.8436195 0.2695617 -0.5895525 0.15783547 0.43030563
0.103777885 -0.13543423 -0.117762506 -0.17009751 0.16463709 0.09707128 -0.049033843 -0.11186214
0.22847287 -0.46328464 0.15621266 -0.14414279 -0.54983455 0.16668694 -0.43724352 -0.7481342
0.19912066 -0.34401122 -0.042107873 0.030035848 -0.1860564 0.03575518 -0.8801482 -0.07093007
1.0596648 0.044357482 -0.23434955 0.5448955 0.13935724 0.10987849 -0.39099538 -0.1086093
0.57377493 0.3900751 -0.7415216 -0.4674721 -0.00010699925 -0.050788354 -0.11892571 -0.14822431
-0.23194918 0.0404974 0.17725608 -0.043112773 -0.08147756 -0.3225915 0.53450793 0.012482513
-0.29878217 -0.24107513 0.0459449 0.5428535 0.050424077 -0.536395 0.044293426 -0.3407511
00000000: 0522 49bd 0186 43be 1fbf 453e 95ab 3dbe
00000010: d813 14be 2a0c 1abe 7982 b13c 55ae b0bd
00000020: b452 3ebe 70ca 753e a70c a1bd 9a4a e23b
00000030: 8c5f 97bd c095 5c3e 1f81 913e 8e73 a3bd
00000040: 859a f5bb 8659 8c3e 9c0e a7bd a1bf 4bbe
00000050: 9973 5abe bdc3 fbbd a55b a4be afba bd3e
00000060: 42f0 d8be b152 7d3e 7577 1bbf 2f88 a0be
00000070: 0e1d e23e d2e0 d53f b609 3b3d d64d 9dbe
00000080: 6f02 043f 80a2 1e3f a111 70be e657 fdbd
00000090: 2495 0ebe 7d89 333f 2d4c fe3d 0870 96bd
000000a0: 1874 9a3e 84a3 cc3e 5865 bb3e 7012 043f
000000b0: 19c0 78bd a4d7 693d 9525 5e3c c019 9c3d
000000c0: d5ee 90bd 8a19 2d3e abb8 85bd bd92 d7bd
000000d0: 441c 013e 52f2 e03e 1f42 f9be 4615 32bf
000000e0: 1203 b33e 3515 31bf bab3 98bd e49d 293d
000000f0: 6b11 ff3d 808f 0d3f c7d5 14bf a377 05be
00000100: 4724 27bf d314 543c 78cd 353f 580d bb3d
00000110: caf4 88ba ae5a 543e ccf2 2e3e 5b0b 743f
00000120: 1d96 683e 0246 2b3f 52d2 8ebd b08d afbd
00000130: e450 08bd 169e 0dbe 1d2a b5bc 7170 98be
00000140: b01b c63d 2e79 e4bd 0a45 46be 0065 1dbb
00000150: ece8 b03d d017 3ebe 0f9b 3fbe 4079 38bb
00000160: a4d6 3bbd ae2b 133e 34dc 5dbe 6cad 11bd
00000170: 2470 31be 3066 05bd b5f9 e9bd 1420 903d
00000180: 808c 3fbe dc1f 34be b6f0 01be 1a8b 48be
00000190: 8890 823e 60a0 853d 65d7 383f ff41 ca3e
000001a0: 08b0 673f 3cdd f13e d860 4bbe a3dc 483d
000001b0: 91d6 21bf 9e0d e73c 5855 c3be f5ce d7be
000001c0: 48f5 27be d406 413f 9c0c 55be f8fb ea3e
000001d0: 2b84 35be 27ac 2d3f f88d 72be 8f7e f5be
000001e0: 81a7 5bbe 5686 25be c10e 66be 52c5 18bf
000001f0: 4f6f e7bf adee 263e a293 fb3d b1f4 3d3f
00000200: 01ad dcbf a470 65be d37e 023f 3f64 ddbe
00000210: 9965 953d 56e6 613f d66d 0ac0 0024 69be
00000220: 8864 babf f1cf 14be 25cf a7bf a26e d03e
00000230: d86b acbd 8b2d 823e ab88 133f 714c 6fbf
00000240: 7b25 da3e 68eb 72be 9823 2b3e 576e 06be
00000250: 5721 0e3d ff72 cb3e ceec 183d 88ec 43bb
00000260: fc5a 073d e798 49bf 2ca7 953e 9d35 0f3f
00000270: 7b50 55bd 4239 89be bb23 b53e 4aa5 c13d
00000280: 811c 9abe 7d3c dc3e e038 043f 2bb3 0dbf
00000290: 495a e03e 0130 a9bf 4e46 1c3f f78d a03e
000002a0: b37d 0dbf 039c ac3f d89f 3abe ae99 a93d
000002b0: 1fb3 0abe 2fdc 513f b05c 43bf 31da 6bbf
000002c0: 2cdb 53bb 6f23 81be 4b88 90bb 9d25 0cbd
000002d0: 6545 d8be fcef 21c0 8ff2 c0be 3488 86bf
000002e0: 0054 b0be 27d2 f6be 5657 a4bf af9d 14be
000002f0: 89ef b0be 7344 083f 7b5f a6bd 259b a5bf
00000300: c6e0 a0bf b200 85bf f785 e93e 73f7 57bf
00000310: fe03 8a3e eaec 16bf 9f9f 213e 0551 dc3e
00000320: 8089 d43d 45af 0abe 782d f1bd 0b2e 2ebe
00000330: a096 283e 4fcd c63d b6d7 48bd fa17 e5bd
00000340: cbf4 693e a533 edbe 36f6 1f3e 2b9a 13be
00000350: f5c1 0cbf fbaf 2a3e 62de dfbe b985 3fbf
00000360: 49e6 4b3e 3d22 b0be 4e79 2cbd bd0d f63c
00000370: 9285 3ebe 0674 123d 6451 61bf c943 91bd
00000380: 19a3 873f 31b0 353d 54f9 6fbe 467e 0b3f
00000390: aab3 0e3e f907 e13d 8c30 c8be 8d6e debd
000003a0: eae2 123f ecb7 c73e 5cd4 3dbf 8158 efbe
000003b0: c964 e0b8 7307 50bd 538f f3bd 1dc8 17be
000003c0: 1684 6dbe 9ae0 253d 9e82 353e 0597 30bd
000003d0: b5dd a6bd b72a a5be 83d5 083f 7483 4c3c
000003e0: faf9 98be 66dc 76be b830 3c3d 72f8 0a3f
000003f0: 7a89 4e3d 2f51 09bf 066d 353d ee76 aebe

fc2.bias f4 [20]
-0.23175053 0.42509857 1.0928464 0.0349053 -0.08312449 -0.23237307 -0.086302355 0.4959943
-0.4444782 -0.6441856 0.9068551 -0.011259363 1.043271 -0.069162846 0.98628575 -0.335465
0.4530063 -0.28448507 0.35466918 0.11605653
00000000: 0350 6dbe 85a6 d93e 64e2 8b3f dcf8 0e3d
00000010: 2c3d aabd 35f3 6dbe 4abf b0bd f7f2 fd3e
00000020: a692 e3be 59e9 24bf a827 683f 3179 38bc
00000030: e789 853f 40a5 8dbd 397d 7c3f 12c2 abbe
00000040: 71f0 e73e 07a8 91be 3397 b53e 0caf ed3d

fc3.weight f4 [4, 20]
-0.3066873 0.287051 0.53294486 0.27931342 0.038070023 -0.21902485 0.91640794 0.47192815
-0.31914526 -0.2684095 0.32946616 0.23535733 0.3566171 -0.09987334 0.3874277 -0.044292342
0.61570376 -0.32141083 -0.0030320704 0.26631153 0.12141868 0.20785162 0.39815363 0.30002743
0.0516797 -0.2723114 2.0386422 0.39389572 -0.2498229 -0.2446345 0.33672258 0.22356793
0.35303468 0.0132715255 0.56789714 0.010802342 0.598044 -0.41948125 0.11244844 0.31186408
-0.17001058 0.029142428 0.26406226 0.5265294 0.11147356 -0.16021085 0.5396357 0.13638042
-0.09487584 -0.039141096 0.30544326 0.12746441 0.62705207 -0.122785084 0.45665294 0.34641665
0.4650614 -0.6780477 0.12654462 0.1516879 0.185618 0.1836638 0.46259245 0.1592622
-0.081062675 -0.39988682 -0.0045956573 0.3146283 -0.23938708 0.115353055 0.53465354 0.311118
0.33897832 -0.1714297 0.33012676 0.24849816 0.15024692 -0.044783115 0.36937827 0.508549
00000000: 1e06 9dbe 59f8 923e 136f 083f 2b02 8f3e
00000010: 50ef 1b3d 0d48 60be b699 6a3f 91a0 f13e
00000020: 0267 a3be f86c 89be caaf a83e 8301 713e
00000030: 8496 b63e 658a ccbd ec5c c63e e36b 35bd
00000040: c39e 1d3f f68f a4be b3b5 46bb fc59 883e
00000050: 5baa f83d 0ed7 543e cbda cb3e 329d 993e
00000060: 18ae 533d 666c 8bbe 1d79 0240 b3ac c93e
00000070: 93d1 7fbe 7781 7abe e766 ac3e feee 643e
00000080: f6c0 b43e d070 593c b561 113f 4efc 303c
00000090: 6919 193f 3fc6 d6be 5e4b e63d a6ac 9f3e
000000a0: 4117 2ebe 1abc ee3c 2b33 873e a1ca 063f
000000b0: 404c e43d 500e 24be 9125 0a3f 4fa7 0b3e
000000c0: 444e c2bd 6a52 20bd 0f63 9c3e 0886 023e
000000d0: 7c86 203f bf76 fbbd 6ace e93e 865d b13e
000000e0: 871c ee3e 8994 2dbf ea94 013e 1354 1b3e
000000f0: a512 3e3e 5d12 3c3e ebd8 ec3e a115 233e
00000100: 3004 a6bd f7bd ccbe 2b97 96bb f616 a13e
00000110: e321 75be 393e ec3d 0edf 083f dc4a 9f3e
00000120: 918e ad3e 448b 2fbe 6006 a93e 4d76 7e3e
00000130: 54da 193e 806e 37bd 261f bd3e 4430 023f

fc3.bias f4 [4]
0.74543005 0.5985598 0.70270705 0.46267185
00000000: 81d4 3e3f 373b 193f 9ce4 333f 53e3 ec3e
